model_state.pth (torch, 448449 bytes, 12 tensors)

layers.0.attn_l f4 [1, 1, 256]
00000000: 3fa7 803d 6092 913d 5d4b c13c ece4 8b3d
00000010: 68bf 8a3b 2d8d 0cbb 054e 22bd 94ed a33d
00000020: acd3 fa3d 37e5 0ebd 674e 313d 106c c5bd
00000030: d029 f6ba 3916 053e 1a1b e7bc 076f 073e
00000040: fbca 08be 5e5d 8fbb 7c8c 17bd e169 a23d
00000050: 89ee 25bd 0ccd 6a3e d0c7 523d eeb2 353d
00000060: e7ea f93d cd8f 1f3e 959d 083c 2f77 bc3d
00000070: 9fba f1bc a66b 783b 9845 a1bd adde 10bd
00000080: 1819 703d 1b9a a7bd 8b43 a23c f295 b43d
00000090: 1d39 8abc e07b 31bd aeed ff3d 2223 2c3d
000000a0: 0df8 7a3d 5869 bdbd ab4f 953d 96d9 0b3e
000000b0: 3a76 1bbd c298 133e 9584 d3bd 7ab3 08bc
000000c0: 7ece 99bd d0f9 543d e225 3cbe c5f3 013e
000000d0: f912 af3d 7b66 213e 4c11 febd 9014 053d
000000e0: 7c5f 40bc aae8 7bbd 79b5 0a3d 9737 c43d
000000f0: cfa6 753c 1d86 f8bd 6334 cd3c dddf 41bd
00000100: b434 2fbc 94a7 e83d 42d5 a7bd 341c 933d
00000110: 3bc9 92bd d317 22be 1560 8dbd 4085 0bbd
00000120: b081 a83d 5e50 aa38 6fb7 09be a37f 94be
00000130: 1ba1 9bbd 2dbd 3cbc 6aba c7bd a02b 9e3d
00000140: 223b 1bbd 2418 113d da73 0fbe 815f 38bd
00000150: 68b2 9dbc 4720 31bd b2b0 ecbd 5ef0 613d
00000160: b7c1 a9bd 1e49 d4bd f2c5 cb3d ecf9 e23d
00000170: d66d 97bb edbd 6cbc 6b10 81bd 2f26 173d
00000180: 3289 723d 9a17 dcbd d9de bc3d 3d45 89bd
00000190: 625a 00bc 0d78 18bd 2ad0 cbbd ad8d 143e
000001a0: f027 9c3d 327a ebbd 36aa 8a3d 956f ad3c
000001b0: e92b 8ebc 36d0 babd 601d 5f3d 586e 5abc
000001c0: ea0f b13d 0d2b 983c 5432 14b9 307c 843b
000001d0: 3453 82bb c09a 4cbb a844 53bd 2381 3bbc
000001e0: 8fc2 8a3d bc98 ac3d 284c 433d cce0 c2bd
000001f0: f8a1 35bd c0d9 27bd ef4b adbd 3193 5cbb
00000200: cb1e febd 19e9 043e 27c0 d6bd fea1 30be
00000210: c000 5dbd c014 f53c 636f aebd c2c5 643e
00000220: 4aba 4fbd 204e 0d3d 1d40 3bbc e18a f7bc
00000230: 4f72 923d a4d8 6cbd 9a57 88bc 6d62 25bd
00000240: 1965 0abe f8e8 fabd cead 1a3d 1677 f03c
00000250: ff61 523d 4ac7 213d f827 823b 6c9d 79bd
00000260: 7298 cabb cfbf 1dbd 17c8 6b3e caa9 9cbc
00000270: 3ffa 323d db05 683d 0137 0d3d a4d0 f1bd
00000280: c294 85bd bd65 bbbd ace2 a43d 7bc4 f13d
00000290: 98e2 abbc 88c9 a83b bab8 d5bd c4e7 dd3d
000002a0: dc38 cd3b aeab fe3d 9a7c 14bd 1c7d 0a3d
000002b0: 4b54 553d 84ba 9fbc 2cf7 3d3d a5ee 003e
000002c0: 8549 85bc 323e da3d e144 3a39 a063 0f3e
000002d0: 8def 73bd b43a fd3c f4ba f33c 0a1a a73d
000002e0: 8b0b bc3d 6523 debd f34c 04be e653 81bb
000002f0: f8b5 7bbd 93f8 24be 64a5 f5bc 02e4 a6bc
00000300: 620c a73d fb0a 473e 9d05 b0bd af68 e43d
00000310: 3fa8 9bbd f924 28bd c9ff 753d 4f39 9f3d
00000320: a6f3 093d 7311 9fbb 10e4 a53c 91e0 f2bd
00000330: d53c a73d 5447 70bd 388a a93c 193e 03bd
00000340: 251d 883d c255 e4bd 1724 33bd 05b4 d63d
00000350: fb09 63be 2be0 323d 8f25 12bb d82e 7b3d
00000360: 9533 113e 0191 4e3e 90b6 0abe fd34 0fbe
00000370: 5392 083a 8478 b63d 3cb0 c1bd 6f23 f2bd
00000380: f337 8b3c 50d7 723d fbea b2bc ee00 46bd
00000390: 47d8 d3bd 4840 77bd 6cec 13bd 3328 12be
000003a0: b303 a13d d6a2 36bd c6d1 083d cba8 a93c
000003b0: 4700 babd d694 a8bc 5d0d 3abe d2e2 1f3d
000003c0: b162 253d 0480 af3c ac92 e7bd 317a 283d
000003d0: 8e1b 163d c9ad 5abb 6147 88bc fd54 06bd
000003e0: fc47 293c fb0f 1abd d4ce af3d 8dc4 1b3e
000003f0: 4351 053e 3fb1 15be 822c 603d 33d2 67bb
0.062819 0.07107997 0.023595506 0.06830773 0.004234243 -0.0021446452 -0.039625186 0.08004299
0.122474045 -0.034886565 0.04328766 -0.09639752 -0.0018780772 0.12996759 -0.028211165 0.13225947
-0.13358681 -0.004375144 -0.03699921 0.07930351 -0.040510688 0.22929782 0.051460087 0.044360094
0.12203007 0.155822 0.008338352 0.0920242 -0.029507933 0.003790596 -0.07874602 -0.03536861
0.05861768 -0.0818369 0.019807598 0.08817662 -0.016872937 -0.043331027 0.12496506 0.042025693
0.061271716 -0.09248608 0.07290586 0.13657221 -0.037954547 0.14413741 -0.103280224 -0.008343572
-0.075100884 0.051996052 -0.18373826 0.12690647 0.085485406 0.1576175 -0.12405643 0.032490313
-0.011741515 -0.061501183 0.033864472 0.095809154 0.014993384 -0.12134955 0.025049394 -0.047332633
-0.010693718 0.11360088 -0.081949726 0.07183114 -0.07167288 -0.158294 -0.06903092 -0.034062624
0.08227861 8.121201e-05 -0.1344888 -0.2900363 -0.07599088 -0.011519712 -0.097523525 0.077231646
-0.03789819 0.035423413 -0.14009038 -0.045012955 -0.01925011 -0.043243673 -0.115571395 0.055160873
-0.08288901 -0.103655085 0.099498644 0.11082825 -0.0046212478 -0.014449579 -0.063019596 0.03690165
0.05921287 -0.10746689 0.09222192 -0.06702659 -0.007834049 -0.037223864 -0.099518135 0.1450717
0.07624805 -0.11497916 0.067707464 0.02117137 -0.017354922 -0.09121744 0.054471374 -0.013331972
0.086456135 0.018575216 -0.00014133129 0.0040431246 -0.0039772037 -0.0031220168 -0.051579148 -0.011444363
0.0677539 0.08427569 0.04768005 -0.09515533 -0.04434392 -0.040979147 -0.08461749 -0.003365707
-0.12408217 0.12979545 -0.10485869 -0.17249295 -0.053955793 0.029917121 -0.08517339 0.22341064
-0.05071477 0.034498334 -0.01142886 -0.03021759 0.07150709 -0.057823792 -0.016643334 -0.04037707
-0.13515128 -0.122514665 0.03776341 0.02935366 0.051362988 0.039496697 0.00397205 -0.060941145
-0.0061827237 -0.038513 0.23025547 -0.01912393 0.043695685 0.05664621 0.034476284 -0.11807373
-0.06522514 -0.091502644 0.08051047 0.11805054 -0.020982072 0.0051509775 -0.104356244 0.108352214
0.0062628817 0.12435089 -0.03625164 0.03381072 0.05208234 -0.019498117 0.0463783 0.12591036
-0.016270408 0.10656394 0.00017764002 0.14002848 -0.059554625 0.03091178 0.029752232 0.081592634
0.09181889 -0.10846595 -0.12919979 -0.003946769 -0.061452836 -0.16110449 -0.029986091 -0.020372394
0.08156659 0.19437782 -0.08594821 0.11152779 -0.0760045 -0.041050885 0.06005839 0.077746026
0.033679627 -0.004854375 0.02025035 -0.11859239 0.081659 -0.058661774 0.02069579 -0.032041643
0.06646184 -0.111491695 -0.04373559 0.10483555 -0.22171776 0.043670814 -0.0022300219 0.06132397
0.14179833 0.20172502 -0.13546205 -0.13985057 0.0005209792 0.08909705 -0.09457442 -0.11823165
0.016994452 0.05928737 -0.021840563 -0.04834073 -0.10343986 -0.060364038 -0.03611414 -0.14273147
0.07862034 -0.044588886 0.03340318 0.02071037 -0.09082084 -0.020578783 -0.1816916 0.039034672
0.040377323 0.021423347 -0.11307272 0.041132156 0.036647372 -0.0033367744 -0.016635599 -0.032795895
0.010332104 -0.037612896 0.08584371 0.15211697 0.1301928 -0.14618395 0.054729946 -0.0035373091

layers.0.attn_r f4 [1, 1, 256]
00000000: 0f75 13bd 3043 7a3c f53a 943e d684 873c
00000010: 16d7 e4bd bc93 393e 938c 98bd 7236 68be
00000020: 0429 b4b8 ba5c 5abe 8713 18be 12b5 6dbd
00000030: 2d57 1b3e 493c 1cbd 4f01 c83d d089 b1bb
00000040: 4c5c 10bd f640 36be b030 4a3c cc9f 853e
00000050: c295 ba3d fcbd aabd ce37 9a3d aa17 ac3d
00000060: 8f26 43be aec6 a53d 0c1f b0bd e3fb cdbd
00000070: dc36 a8bd 7b79 643d ccd3 153e 56d0 45be
00000080: 5492 35bd 624c 64bd d19c 2abe 5e05 56be
00000090: b56d a63d f8b7 183d 16c4 00bd 7f19 d53c
000000a0: 2ba7 63bd 5a6c 8e3d 8de4 6f3e 10b6 adbc
000000b0: b9f9 05be d7f7 65be 7bfa 30be 445a 43be
000000c0: ad3b a0bb 3d6e 3e3e f209 323e 4059 00bd
000000d0: 61cc 133e f071 79bd 7039 aabd 098f 2bbe
000000e0: 1724 b1bd eff6 26bd 953b b6bd a74b d0bd
000000f0: 5859 b83b 5daf 653c 4640 d8bc 43fd 643e
00000100: f657 833e 5841 cb3d 598e b8bd a134 36bb
00000110: 1337 3a3d 5ef3 1ebe 2de6 7a3d 5c44 573c
00000120: efb0 f53d af72 d43d 7c5b 3ebe d02d 6fbe
00000130: 4bc3 d8bd 99c1 ccbb ea32 96bd c4a7 bc3c
00000140: 62c3 51bc 7b0e 0ebe 1b49 16bd d06d 87bd
00000150: 6030 19be fc1a 3c3d 3007 1f3b 9033 2dbe
00000160: f602 ac3d 52e0 ff3c 0630 7c3c 8d5c 593d
00000170: 115d c53d fa8a bcbd 791a d53d 15a5 c03d
00000180: 8a6c b0bd 7eda a7bd aafb 1fbd a4d3 3cbd
00000190: 2a23 bf3c 3a8c 5bbc 7125 25bd ec66 bdbc
000001a0: 7c55 7a3e 5df5 863d 349a 24bb 4a88 bc3c
000001b0: 0dcb 853e 8dd6 9ebd 24b9 833b 4f78 54bc
000001c0: a927 76be cd18 f33c 7767 b7bd 1776 d9bd
000001d0: ddfb 6abe 83f4 29be 6053 0dbe c711 b7bc
000001e0: a9b8 ca3b 89d9 9cbd 53b9 143e 3efd 32bd
000001f0: 8b64 b43d 5882 b03d 5339 9f3d 26f4 efba
00000200: c454 d93d debb a6be 2986 06be ad9d a03d
00000210: fa15 463e 14bc 3abe 77c2 cebc 7184 cf3d
00000220: 96b1 683e 830a d43d 15c2 63bc 0a7d fabd
00000230: e35a 203e f4e0 cc3d 1d71 41bc 66b7 3abd
00000240: 8e43 db3d ab55 463d bed4 74bc 996c 833a
00000250: 0d06 f23c cc13 ab3d 0980 35be 322d 1a3d
00000260: 618e 023d 6ec0 e23c e94f 45be 29be 19be
00000270: 0540 2cbe 0ddb 3bbe 2187 0abd 2451 87be
00000280: baea 79bc 867a e5bd f194 8d3d 0408 b83c
00000290: 549a 6e3d f78f 96ba f8e8 82be bec8 a43d
000002a0: 4203 d53d 8b24 b0bd fbc9 bebd f0de 723d
000002b0: 6425 14bd ed12 d5bd b98c 123c 7018 c4bd
000002c0: 5bf6 133d 2cce a63b f685 40bd 539c c5bd
000002d0: 83aa e53d f5b5 fdbd 0da6 69bd 65fa 783e
000002e0: ca1d 393e bb52 523e 9c21 cfbc 413d 31be
000002f0: 99bd 1a3e 098f e93c 9493 dfbc 36d7 8abb
00000300: 8a7e 84be 3267 ef3d 2ebf e2bd 3066 48be
00000310: a073 3e3e 3701 203e 4d8c 383e edfb 34bd
00000320: b7db 36be 133c 4abe 38cf fcba c1cc f03c
00000330: bfa8 f53d ff95 0dbd 6ef9 ecbd 3866 41be
00000340: 22ce 013e 6a74 1e3e e8ef 453d 9705 3e3d
00000350: dda0 ba3d a274 4a3c 3d59 2c3e 16e8 74bd
00000360: 79d3 0f3e 9ef5 a23d cba0 28bd 039c ccbd
00000370: 42e2 6f3e 1c01 363e 6f65 8b3e 97fa eb3d
00000380: 6070 70be 61bc 03bb 3538 743d e8cc b6be
00000390: 1f07 11be 3058 0fbe fba7 7bbd 1f16 40bd
000003a0: 6bea 14be b404 25bd 396d 39bd c087 5c3d
000003b0: 4044 3a3e 0cba be3d ecf8 d9bc 5bd7 c0bd
000003c0: 905a 743d d755 7c3d 38a8 9c3c 2e71 0a3b
000003d0: ece5 4dbd 4523 9ebd 403d 08be 1e4d 92bd
000003e0: d1aa 46be f057 da3d 4e69 6ebe 6291 843d
000003f0: 2ba2 813d 6f49 87be e5c9 f43c f565 ecbc
-0.036000308 0.015274808 0.2895123 0.016542833 -0.11173837 0.18122762 -0.074486874 -0.22677019
-8.5907086e-05 -0.21324435 -0.14851199 -0.05803401 0.15169974 -0.03814343 0.097658746 -0.00541804
-0.03524427 -0.17798218 0.01234071 0.26098478 0.09110595 -0.08337018 0.07530175 0.08402951
-0.19057678 0.08094536 -0.08599672 -0.10057809 -0.082135886 0.055779915 0.14631575 -0.19317755
-0.044329002 -0.055736907 -0.16661383 -0.20900485 0.08126394 0.03728482 -0.031437002 0.026013134
-0.055579346 0.0695426 0.23427029 -0.021204978 -0.13083543 -0.22457825 -0.1728305 -0.19077402
-0.0048899264 0.1859674 0.17386606 -0.031335115 0.14433433 -0.060899675 -0.083117366 -0.16753782
-0.08649462 -0.040762838 -0.08898083 -0.101706795 0.005625885 0.014018861 -0.026397835 0.22362237
0.25653046 0.09924573 -0.09011526 -0.0027802365 0.04546268 -0.15522525 0.06125467 0.013138857
0.11996638 0.10373437 -0.18589586 -0.2335732 -0.10584124 -0.0062486646 -0.0733393 0.023029216
-0.012802931 -0.13872711 -0.036690813 -0.06612742 -0.1495986 0.04592417 0.0024265759 -0.16914201
0.08399002 0.031234894 0.015392309 0.05306678 0.09636892 -0.09206195 0.1040544 0.09406487
-0.08614452 -0.08195971 -0.039058365 -0.046100274 0.023332197 -0.013400132 -0.04031891 -0.023120366
0.24446672 0.06589768 -0.0025116326 0.023014206 0.26131478 -0.07755766 0.004019873 -0.012968137
-0.24038567 0.029674912 -0.08955281 -0.10618227 -0.2294764 -0.1659718 -0.13801336 -0.022347344
0.006186564 -0.07658679 0.1452382 -0.04369854 0.088082395 0.08618611 0.077746056 -0.0018307015
0.10611871 -0.32565206 -0.13137116 0.07842574 0.19344321 -0.18235809 -0.025239212 0.10132683
0.22723994 0.103535675 -0.013901253 -0.122308806 0.1565967 0.10003844 -0.011806753 -0.04558506
0.107062444 0.048421543 -0.0149433 0.0010026871 0.0295439 0.08353385 -0.17724623 0.037640758
0.031874064 0.027679648 -0.19268765 -0.15013947 -0.16821297 -0.1834528 -0.033820275 -0.26429093
-0.015253717 -0.1120501 0.06913174 0.02246476 0.058252648 -0.0011486997 -0.25568366 0.08046101
0.10401012 -0.0860072 -0.093158685 0.05929464 -0.03616847 -0.104040004 0.008944684 -0.095749736
0.036123615 0.0050904956 -0.047002755 -0.09648957 0.11214163 -0.12388221 -0.057043124 0.24314268
0.1807777 0.20539372 -0.02528458 -0.17308523 0.15111388 0.028510587 -0.02729205 -0.004237081
-0.25877792 0.11689605 -0.11071621 -0.19570231 0.18598795 0.15625463 0.1802227 -0.044185568
-0.17857252 -0.19749479 -0.001928783 0.02939451 0.119950764 -0.034566876 -0.115710124 -0.1888665
0.1267629 0.15474096 0.048324496 0.04639205 0.091127135 0.012356909 0.16830917 -0.059791647
0.14045514 0.07957004 -0.04116897 -0.099906944 0.23426154 0.1777386 0.27225825 0.115224056
-0.23480368 -0.0020101296 0.059623916 -0.35703206 -0.14162873 -0.13998485 -0.061439496 -0.046896096
-0.14542548 -0.04028769 -0.04527018 0.0538404 0.18190098 0.093128294 -0.026607953 -0.09416076
0.05965668 0.0616053 0.019123182 0.002112459 -0.0502681 -0.07721571 -0.13304615 -0.07143615
-0.19401099 0.10661304 -0.23282358 0.06473042 0.06329759 -0.26423213 0.029881427 -0.02885721

layers.0.bias f4 [256]
00000000: 4a8f 7bbd 226a 8c3d 84f1 253d 009f 95bc
00000010: 01a8 ab3d fc27 b83b 22fa acbd 3d35 963c
00000020: 0c8a 1bbd 2149 2a3d 1ed7 da3c bc16 af3d
00000030: f06e 9b3c 621e c63c f5ce 07bd 0077 b4bc
00000040: dabb 1abd 0646 563d 994f c63c b0fe 7e3d
00000050: e940 6fbc f5e6 62bc b31e d03c 7fd9 99bd
00000060: e095 633d 53b7 debb 07d1 a4bb 6ac8 c9bd
00000070: de58 973c 29ec ccbd 5dbd 95bd 7a72 843d
00000080: d8f0 a23d 61ae 93bd 910a 35bd 6d1b 06ba
00000090: 91a3 953c d878 07bd cdba acbd dedc 0abc
000000a0: 9349 b4bc 1e7f 233d 10a5 ccbc e2da 383c
000000b0: 40dd 59bd f7b9 883d 9f3b 223d 9dcb 1f3d
000000c0: 8d5a d83c e94b 3b3d 8d0d 213c da38 903c
000000d0: 2545 f2bd 6a6a 643c 5424 2a3c 3057 7d3d
000000e0: 609a 0c3d 6a65 8cbd e3b3 983c e122 393d
000000f0: 234a 02bd 4c26 7a3d e23e 0b3d 157a f83d
00000100: f1ef a93d 604b a7bd bdb9 debc b6e3 673d
00000110: 1cd2 10be 1746 b43c 4cce e03d e91c 90bd
00000120: aafe 81bc 2ed5 463d d5cd 4bbd e82f 64bd
00000130: 6bef f4bb d3d3 c6bd ca08 353d d34d c7ba
00000140: 6565 293d b456 ac3c bcb3 04bd be0d f13c
00000150: 6271 f73d deb1 bb3c ea15 4c3c 9ae2 fdbc
00000160: 3266 bb3d bf2d 4f3c 46bb b5bc 2d79 1c3c
00000170: 7af8 e13d 2a9b 10bd 2e60 fb3d 900d 573d
00000180: 9831 17bc cc9a 2a3e 18db 8c3d b908 983d
00000190: 9056 25bd 2b5d a23c 720d 873d 892e eebd
000001a0: fb58 953d 99f6 623c 3b24 0c3d 38e4 913d
000001b0: 8791 d2bc 1acc 92bd 9f04 303d 4bc7 933d
000001c0: 60a1 2bbd 4eb0 cf3c f856 9fbd 0bea ca3d
000001d0: 2296 f73c 640e 033d e691 773d 6058 933d
000001e0: 74cf d6bd 1a64 87bd 3fea d4bc 8db1 ddbd
000001f0: d036 323d acc8 46bc b67b 52bc 7fc8 033d
00000200: b4b2 13bd 587f 443c 7648 07bc 55c1 5e3d
00000210: 744d da3d 1b31 3b3d 7a1e 323d bee2 af3c
00000220: 003d af3c 859f 3abc 55d3 7c3d 4639 de3c
00000230: 7451 e3bc f685 c63b d91a a53d 5fd0 a73d
00000240: df67 9d3d f44d 733d 78bf f93b 719d 503d
00000250: 8902 f6bd c204 243d 5cd2 3ebd 0c93 b63d
00000260: 55e6 fd3c 5b16 a73c 3b01 11bc f37c 223d
00000270: 09cf d23c 94f0 6b3d 6fa1 d83c 7622 043d
00000280: f022 7a3d d47c 873d dbd3 5b3d 2185 d6bd
00000290: f9d9 213d c337 bb3d f9ba eb3c e9ac 243d
000002a0: 2388 b7bc fc8b 02bd 94bf 2ebc 8ef6 2abd
000002b0: 722f 19bd a5ed 7b3d 4fe9 2b3d 6e75 d53d
000002c0: 60db 633d 59ab b4bc 1ab5 913d 2325 fbbc
000002d0: c557 eb3c 9704 08bd 1ae8 1abd bc59 8cbd
000002e0: 5597 de3b b717 c3bd a62d 8fbb 56da 94bc
000002f0: c109 e73d f152 b7bc 8c4b 973c f7ac 743d
00000300: 3e66 12bd 9dc0 bebb 3c5e 90bd edbd cabb
00000310: 5fd3 5a3c 3bb7 42bb 4d3a bc3d 1dd0 a63d
00000320: e3ac 88bd 5f67 52bd 5467 e3bc 7c63 f53c
00000330: ab3b 9cbd 971f 97bb 8c9a be3c 566d 723c
00000340: 2414 b63d 1173 913d 5b1c 653d 8b06 01bc
00000350: f412 b23d 498e 1e3d 3c85 81bd 17c3 b0bd
00000360: 89d2 3d3d 6897 ca3b 2658 91bc 2434 023d
00000370: c2b6 bfbd 8a93 07bd 0b20 873d 27a3 893c
00000380: 3141 9cbd a917 8a3b 0ee1 cdbc a999 823c
00000390: 0e50 813d 1eec ccbd 467f 923d a9ba f83b
000003a0: a420 d73c 6d45 8fbb 5fec 36bd 6594 68bd
000003b0: 92d3 6f3c e9e0 27bd 2626 6b3d b4d4 80bd
000003c0: 4bfa af3d b6a1 f2bc a9cf a4bb eeab 08bd
000003d0: e4b3 f73c b73c 8a3d 668d 21ba 3cc6 8fbd
000003e0: f74a 823d d559 043b 20bf 9f3c 9951 30bc
000003f0: 3741 13bc d275 403d 1c16 c93c 2684 19be
-0.061415948 0.06856181 0.04051353 -0.018264294 0.083816536 0.005620001 -0.084461465 0.018335933
-0.03797345 0.041573647 0.026713904 0.08549258 0.018973798 0.02418441 -0.033156354 -0.0220294
-0.037776805 0.052312873 0.024207877 0.062254608 -0.014602878 -0.01384901 0.025405264 -0.07512187
0.055562854 -0.0067967563 -0.005029801 -0.09852679 0.018474992 -0.100059815 -0.07311509 0.06467147
0.079560935 -0.072109945 -0.04419953 -0.0005115781 0.018266471 -0.03307423 -0.08434067 -0.00847551
-0.02200774 0.03991615 -0.024981052 0.0112826545 -0.053189516 0.06676095 0.03960764 0.03901254
0.026410365 0.04572669 0.009829891 0.017605234 -0.118295945 0.013941387 0.010384638 0.061850727
0.03432691 -0.06855281 0.018640464 0.04519928 -0.031808984 0.06107168 0.033995517 0.1213266
0.08297718 -0.081686735 -0.027188176 0.056613646 -0.1414265 0.022006078 0.10976848 -0.07036764
-0.015868504 0.048543148 -0.049756844 -0.05570975 -0.00747483 -0.09708371 0.044197835 -0.0015205689
0.041356463 0.021037437 -0.03239797 0.029425498 0.12082173 0.022911962 0.012456397 -0.030991841
0.091503516 0.012645184 -0.022184025 0.009550375 0.11033721 -0.035304226 0.12274204 0.05250317
-0.009228133 0.16660613 0.06877726 0.07423539 -0.040365756 0.019819817 0.06594361 -0.116299696
0.07292362 0.013852739 0.03421424 0.071236074 -0.025704158 -0.071678355 0.042973157 0.072157465
-0.041901946 0.025352623 -0.0778026 0.099079214 0.030222956 0.031996146 0.060441874 0.071945906
-0.10488787 -0.0661089 -0.025990603 -0.10824881 0.043509305 -0.012132805 -0.012846878 0.03217363
-0.036059096 0.011993252 -0.008257022 0.054383595 0.10659304 0.045701127 0.043486096 0.021470424
0.021391392 -0.0113905715 0.06172498 0.02712692 -0.0277488 0.00605845 0.080617614 0.081940405
0.076858275 0.059400514 0.007621702 0.050931398 -0.12012202 0.0400436 -0.046587333 0.08914766
0.03099362 0.020396402 -0.008850391 0.039669942 0.025733488 0.05760248 0.026444165 0.032259427
0.061068475 0.06615606 0.053668838 -0.10474611 0.039514516 0.09141495 0.028775679 0.040203962
-0.022403782 -0.03187178 -0.010665793 -0.04173904 -0.037398763 0.061505932 0.041970547 0.104227886
0.055629134 -0.022054361 0.071146205 -0.030657357 0.028728375 -0.033207502 -0.037819006 -0.06853053
0.0067929425 -0.095260076 -0.0043694554 -0.018170517 0.11281157 -0.022378417 0.01846864 0.059735265
-0.035742037 -0.005821301 -0.07049224 -0.0061871917 0.013356059 -0.0029711265 0.091908075 0.08145163
-0.066736005 -0.051368114 -0.027759232 0.029954664 -0.07628568 -0.00461192 0.023267053 0.0147965755
0.0889056 0.07102025 0.055935245 -0.007875095 0.08695021 0.038709912 -0.063242406 -0.086309604
0.04634336 0.0061826 -0.017742228 0.031788006 -0.0936103 -0.03309969 0.065979086 0.01680143
-0.07629622 0.0042142463 -0.025131729 0.015942411 0.06314097 -0.10005973 0.07153182 0.007590611
0.026260681 -0.00437229 -0.044659015 -0.056782145 0.014637845 -0.040985975 0.057409428 -0.0629057
0.085926615 -0.029618125 -0.005029638 -0.03336709 0.030237146 0.06749862 -0.00061627326 -0.07020232
0.06361955 0.0020195146 0.019500315 -0.010761642 -0.008987716 0.046987362 0.024546675 -0.14991817

layers.0.fc.weight f4 [256, 50]
00000000: 8baa abbd 3507 8abc 38c3 cbbd 2ce0 a53d
00000010: 4655 67be beca 043e 9558 833d 8bb2 7abd
00000020: 5863 31bd 16d2 1f3e e44a 14be 2d4b 2e3e
00000030: 760a 4c3e 20c9 df3d 5fd1 6c3d 8c0d 193e
00000040: 09a7 4f3d dd5e 8cbd 3482 aabe d6d5 0abe
00000050: d553 303c b1b1 acbe 5aa2 dfbe 6c8a 1abe
00000060: a14b 9e3d cb4f cf3d d241 0a3e 7243 d6bc
00000070: 2d3c ec3c 2eaf b23a 5eb7 593c 7942 413e
00000080: 0062 0f3e 2341 b13e cd5e b13d 4686 6bbe
00000090: d12f 0dba a189 c53d a287 1c3c 8e12 b2bd
000000a0: e3af 103e 1b32 61bd 1967 fb3d 7fd9 383e
000000b0: f131 3e3e aa5b 033e d402 a83d 7063 203e
000000c0: d431 2abd ce0d 8e3d 50c1 613e 7124 e9bc
000000d0: 5502 97be 4a2e fbbd 519d bf3d a800 c1bd
000000e0: cc40 b8bc 2463 9d3d 0556 273d c293 133e
000000f0: 22b5 9d3d df19 5cbe dded 3a3e 5f6b ae3c
00000100: ac67 d43d 4051 273e 1438 993a d9f1 ac3d
00000110: 2a65 55bd ffd7 1b3d a2f7 f6bd 9a35 0abe
00000120: ecbb c53d 3f2a 253e d9f5 143e 3165 4bbe
00000130: 5b99 50be cb96 b8bc 0250 d73d 7258 963e
00000140: ba62 06be 62cf 733e 6436 fc3d 997c b13d
00000150: 743a 763e acd7 163e f080 97bc ca5e 0f3e
00000160: e234 01be 1b62 9f3d 114b a8bb c4a1 db3b
00000170: d710 a9bd b256 d7bc 904f 073d 2d31 7a3c
00000180: d283 043c 04e4 fdbc a76b 2cbe 7c7d 08be
00000190: d815 eabd c7a5 52be a076 fcbe b319 04be
000001a0: 203a 83bb 14ef 66bd 5fa5 843e 0639 4d3e
000001b0: 2868 133e a8fe 53be 9704 8fbd 8f31 f43c
000001c0: c801 6ebe 2793 33be e6c0 05be 4918 51bd
000001d0: 255f adbe aa29 173e a89a b53c 4074 453e
000001e0: 1483 01bc 2cc7 3fbb d185 813e cbd3 8dbe
000001f0: a638 70bd 5cbd 88bd d4d9 843d 210d 90bc
00000200: 9e6f 1d3e ad61 c73d 9ebd b6bc 77a7 513e
00000210: 1770 3c3e e475 89be 83ed acbd 4750 dabc
00000220: 7758 3bbe 70b9 22bd d587 a9bd 3737 86be
00000230: c176 c3bd d628 a5be 65ec 4cbd ae6f 40bc
00000240: ab9c 523e 2689 8fbc 6ebd fa3d 7a87 b43c
00000250: 56d2 5a3e cf15 bcbd a8cd 70be 0517 12be
00000260: 4429 f53c dd6c ff3d 9ae4 07be 8fce 16be
00000270: 30ec b3bc b367 3a3d 70c2 2537 94dd 213e
00000280: 39fa 153e d002 543c 6e82 383e e8b3 353e
00000290: 2978 ba3d 946a 843d 741a e03c 01fa b6bc
000002a0: fe7e d2bb 942a a33e 5ea2 d03d 2b90 833e
000002b0: 026f 8ebd f80d 72be 8339 0cbe 2af3 dd3c
000002c0: 9b3e 483c f59b efbd 9fdb 15be faa6 5cbd
000002d0: 5f59 4f3c 76f7 913e 0ba8 883e 0754 5f3e
000002e0: 45c5 ba3d e6ee 7c3e 349c 11ba 9d6a fabd
000002f0: 63d2 7b3d 1580 3dbe 4006 1d3e d73c 803d
00000300: 57ff 0dbe 4d34 0e3d 2002 a7be 65af b0bc
00000310: 38f7 0dbd 1eb4 6e3e 3c36 9d3c 8649 53bd
00000320: e1c7 2e3e 42bf 043d d6c9 d13d c2f3 50be
00000330: 386f 5abd 0048 f13d 0ff3 9b3d f8be a3be
00000340: 6c41 52be 34aa 863e f994 57bd 6d0b 423d
00000350: 8a96 ca3c 6307 66bd 2b1c d4be c5e0 1cbe
00000360: 5f22 a23e 847f d43e d28f 24be 35e8 043e
00000370: f578 623e a1ea 0d3d 10e9 a4be 5092 6e3d
00000380: a59e c83d 3a5b 9b3d 1655 9139 4523 e33d
00000390: 497f 6e3d c0db 11bf 7042 1e3e 718e 9a3e
000003a0: 75da 8abd 7350 2f3e 2d03 b43d 61c9 413d
000003b0: ccfc bcbd e0e6 443e f140 983e 6af9 4fbd
000003c0: 7d75 863e f526 813e c5c1 acbd c927 143e
000003d0: 38ba a63b b68d 093e 7a99 3e3c 1429 75bd
000003e0: d38d 1f3e 12e6 a0bd c0dd c13d f097 2cbd
000003f0: 4953 90bd 1393 71bc 2e4c 2abe cae2 d1bd
-0.08382138 -0.01684914 -0.099493444 0.08099398 -0.22591123 0.12967965 0.0641338 -0.061205428
-0.043307632 0.15607485 -0.14481694 0.17020865 0.19925866 0.109270334 0.05781686 0.14946574
0.050696407 -0.06854031 -0.33302462 -0.13558134 0.010762175 -0.33729318 -0.43678552 -0.15091866
0.07729269 0.10122641 0.13501671 -0.026155207 0.028837288 0.001363253 0.013288347 0.18873014
0.14002228 0.34620008 0.0866066 -0.2300044 -0.00053858483 0.09645391 0.009553822 -0.08694945
0.14129595 -0.054979425 0.12275524 0.18051718 0.18573739 0.12827936 0.082036644 0.15662932
-0.041551426 0.06936227 0.22046399 -0.02845976 -0.29493967 -0.12264688 0.093561776 -0.09423953
-0.022491835 0.07684925 0.04085352 0.14411834 0.07700564 -0.21494244 0.182548 0.021291433
0.10371336 0.16339588 0.0011689686 0.08444566 -0.05209843 0.038047787 -0.12058951 -0.1349701
0.09654984 0.16129397 0.14546908 -0.1986282 -0.20371 -0.022532841 0.10513307 0.29364353
-0.13123599 0.23809579 0.12315062 0.08666343 0.24045736 0.1473071 -0.0184941 0.14001003
-0.1261783 0.07782384 -0.0051359017 0.0067026336 -0.08255165 -0.026286457 0.03303486 0.0152705135
0.008088069 -0.030992515 -0.16837941 -0.13329118 -0.114299476 -0.20571052 -0.49309254 -0.12900428
-0.004004732 -0.056380346 0.25907418 0.20041284 0.14395201 -0.20702612 -0.06983297 0.029808788
-0.23242867 -0.17536603 -0.13061866 -0.05104855 -0.33861652 0.14761987 0.022168472 0.19282627
-0.007904787 -0.0029263003 0.25297406 -0.27700648 -0.058647774 -0.066767424 0.0648686 -0.017584385
0.1537461 0.09735427 -0.022307213 0.20474039 0.18402134 -0.26847756 -0.08443739 -0.026649607
-0.18295465 -0.03972763 -0.08277861 -0.26214 -0.09544135 -0.32257718 -0.05003013 -0.0117453765
0.20567577 -0.017521452 0.12243162 0.022037257 0.213693 -0.09183847 -0.23515952 -0.14266594
0.029926904 0.12471936 -0.13270798 -0.14727233 -0.021963209 0.04550905 9.880037e-06 0.15807182
0.14646234 0.012940124 0.18018505 0.1774441 0.0910495 0.06465641 0.027356364 -0.022336008
-0.00642383 0.31868422 0.10187219 0.2569593 -0.06954767 -0.23638141 -0.13693814 0.027093489
0.012221958 -0.11699668 -0.1463456 -0.05387018 0.012655585 0.2850911 0.26690707 0.21809398
0.091196574 0.24700508 -0.0005554587 -0.12227366 0.061479937 -0.1850589 0.15334415 0.06261604
-0.13866936 0.034717847 -0.3261881 -0.02156801 -0.034659594 0.23310897 0.0191909 -0.05158379
0.17068435 0.03240896 0.10243575 -0.20405486 -0.053328723 0.11781311 0.07614719 -0.31981635
-0.20532769 0.2630173 -0.052632306 0.047374178 0.024729986 -0.05615939 -0.4142774 -0.15320118
0.31666848 0.41503537 -0.16070488 0.12979205 0.22116454 0.034647588 -0.32209063 0.058245003
0.09795884 0.075857595 0.0002771995 0.110907115 0.058226857 -0.56975937 0.15455031 0.301868
-0.067799486 0.17120533 0.08789668 0.04731119 -0.09227905 0.19228697 0.29737046 -0.05077497
0.2626151 0.25225034 -0.08435396 0.14468302 0.005088117 0.13432965 0.011633271 -0.05985363
0.15581445 -0.078563824 0.094661236 -0.042137086 -0.070471354 -0.014744538 -0.16630623 -0.10248335

layers.1.attn_l f4 [1, 1, 256]
00000000: d344 fbbc 0d99 f339 7888 eebd 7ec8 0c3d
00000010: 8424 09bd a1d4 0c3e 3c99 33bd df20 d2bb
00000020: 5c9a 87bd f43d 0dbe ca37 ddbd 19e6 0c3d
00000030: 416a 8e3d c9a0 083d 85cb 8bbb 4240 5bbd
00000040: f614 76bd b951 6dbd 0b8a d03b 9fe2 9fbd
00000050: f433 ca3b 1278 8fbd 0399 f83d 0dcf 04be
00000060: 6107 f03c 8356 e93d d5d1 2bbd fd25 b0bd
00000070: 8c4a 0abd b1e2 c7bd a446 79bc 4837 bc3c
00000080: d843 093e 9201 e33c 4350 b3bd 132b f73c
00000090: 3e2b f93b a364 8cbe 8923 8b3d ecb0 b9bd
000000a0: 125c 17be 1f88 4fbd 9590 9f3d 13e2 5fbd
000000b0: c26e 993d 9bda 14be 7ebf 9e3d 7990 b03c
000000c0: 8f08 e9bd 9707 03bd 34f4 a53d 6d66 c8bd
000000d0: 5986 af3c 3b00 12bd b208 72bc 5b0f d2bc
000000e0: 4316 30be 9044 1fbe e166 41bc 7d32 12bd
000000f0: ccdb 243e 559d 103e 3297 f4bb c7be 9d3d
00000100: 7ab2 29be 08d7 eabd 7e08 7c3d 1bd0 c63b
00000110: 9890 b3bd 7846 0a3d 667b 22bd aa0c f33c
00000120: 992f 893d e8b5 eebb 9e8d 88bd 6720 15bd
00000130: 947c 693d 814c 153e bbe6 b33d 480b ccbd
00000140: 1b6a c4bd 0b4f cfbd 60e9 0cbd 357d 23be
00000150: 9ea5 cbbc 3008 893b 2ff9 863c 7446 2ebe
00000160: cc5b 463d 2ea8 613d 8e98 70bd ac04 173e
00000170: 73e7 383e 387e 05bd 867f 323e e225 313e
00000180: 57bd 59bd 7080 85bd cb91 a83d cf63 9a3b
00000190: a0de d3bd b407 d1bd c72e 1dbd 7970 573d
000001a0: fb8b c0bd 67a8 a8bc d860 fa3d 55c9 123c
000001b0: b92d 33be 35e9 4b3d 22e8 67bd 735e c2bd
000001c0: 2928 02bd 83c3 a0bd 27b7 5d3e 28a4 ca3d
000001d0: 8afc c43c f70a 2d3d 5851 cabc d90f b2bd
000001e0: 8ace 883d c655 10be ae81 d73d eaec 1cbd
000001f0: a21d 233d 6882 c43b 0164 3bbd 8277 c2bc
00000200: fc70 983d ef53 ae3c 6524 4fbd 9c1a 91bd
00000210: a14d cbbd d48a e6bd 74ab b3bd 459d 053d
00000220: 37b5 a73d 1075 01be b827 59bc 04fd 3bbd
00000230: 6f63 98be e48d c03d 47d8 22ba 763d 053e
00000240: f79f dcbd 6ab8 1abd 5330 423e 2b1a d03d
00000250: d88c febd 0af3 273d 3b62 74bd da6e 22bc
00000260: d5c8 76bd 65e4 8cbd 130d f63c 1c57 b5bc
00000270: 8531 023d 9630 4f3c e5a5 533d a3c7 953d
00000280: 63fb 91bd 48a9 fd3c 3c89 a93b e401 d8bd
00000290: 90ef 95bd 7d5e aabc 116b f43c 2186 253c
000002a0: 312e 3a3e 8d44 22bd 522c 343d 0a48 8dbd
000002b0: 9d62 e6bc f514 053e 9e43 503b 5fc1 0c3d
000002c0: 8e52 5b3e acee e53c 2764 4d3e 8144 59bd
000002d0: 0659 c03d 736c b43d fb4f 363d bacb 203e
000002e0: 07b7 213c b893 453c bfe4 29bd 7d8d 393d
000002f0: 5f7d 1cbb 9cce 2bbd e7b6 c43d 21f7 303c
00000300: b16e 613d 218d 833c 2c43 a8bc 21c4 a8bd
00000310: 8ff1 9b3b 8872 3dbd cc1b b03d 44a1 efbd
00000320: b228 263e 855e 3d3d 3a43 80bd 959e 393d
00000330: 76d5 9abd b0c6 0cbd 7cf3 6b3e 325f 2d3e
00000340: 2048 4dbe 46a8 4fbd 1af3 ab3d fa55 803d
00000350: 100e fbbc 0dc4 9c3d d88e a93c 347d a9bd
00000360: 13e3 cd3d 9547 94bd 9bdd 92bd 9840 cf3d
00000370: 6e1e 07be e9b7 15be 66e1 cd3d f774 5a3c
00000380: 2cbf 393d f521 8fbd 1ee1 afbd 222f e5bd
00000390: c239 043d a17a afbc 7ae9 9dbd 061d 9d3c
000003a0: 5dbd 983d fff3 6a3e a445 803d ed00 2c3c
000003b0: cbbd b4bb 48f9 d93d f676 dcbb 377b bb3d
000003c0: 63ca 9d3d 0256 763c 552f dcbd 746e 843d
000003d0: 82e7 5dbc 2bc8 b43c 3910 3ebd 3901 9d3d
000003e0: 634c 56bd 0c9a 093d a495 9fbd 93bc 0cbd
000003f0: c896 2fbd 422a 7cbc 8556 a8bd 97cc 6a3d
-0.030672466 0.00046462603 -0.11647123 0.03437089 -0.03348209 0.13752986 -0.043847308 -0.00641261
-0.066212386 -0.13793164 -0.108016565 0.034399126 0.0695386 0.03335646 -0.004266205 -0.053528078
-0.060078584 -0.057939265 0.0063641123 -0.078068964 0.006170744 -0.070053235 0.1213856 -0.12969609
0.029300394 0.11393454 -0.04194816 -0.08600996 -0.0337625 -0.09760035 -0.015214596 0.022975579
0.13404787 0.02771071 -0.08755543 0.030171907 0.007604032 -0.2742053 0.06793887 -0.09066948
-0.14781216 -0.050666925 0.07791249 -0.05465896 0.074918285 -0.14536516 0.07751368 0.021553265
-0.113785855 -0.03198966 0.08103219 -0.09785161 0.021426367 -0.03564475 -0.014772581 -0.025642088
-0.17195992 -0.15553498 -0.011804313 -0.03569268 0.16099471 0.14122517 -0.007464313 0.077024035
-0.1657199 -0.11466795 0.061531536 0.0060672886 -0.087678134 0.03375861 -0.039668463 0.029669125
0.06698532 -0.0072848685 -0.06667636 -0.036407854 0.057003573 0.14579965 0.08784243 -0.09963089
-0.095905505 -0.10122498 -0.03440225 -0.15965731 -0.024859246 0.004181884 0.016476242 -0.17019063
0.048427388 0.05509203 -0.058739237 0.14747876 0.18057041 -0.032591075 0.17431459 0.17299607
-0.053159084 -0.06518638 0.08230933 0.004711605 -0.10345197 -0.102065474 -0.03837469 0.052597497
-0.09401699 -0.020588113 0.12225503 0.008959134 -0.1749791 0.04978295 -0.056617863 -0.09490671
-0.03177658 -0.07849791 0.21651898 0.098945916 0.024046201 0.042246785 -0.02469699 -0.08694429
0.06680019 -0.1409522 0.10522781 -0.038311876 0.039823182 0.005996991 -0.045749668 -0.023738626
0.07443425 0.021280257 -0.050571818 -0.070851535 -0.09926916 -0.11256948 -0.087729365 0.032620687
0.08188861 -0.12642312 -0.013254099 -0.04589559 -0.29763362 0.094020635 -0.00062120374 0.13011727
-0.107726984 -0.037773527 0.18963747 0.10161241 -0.124292076 0.041003264 -0.059663992 -0.009914124
-0.060250122 -0.068795 0.030035531 -0.022136264 0.031785507 0.012645861 0.05167188 0.07313468
-0.07128026 0.030964509 0.0051738303 -0.105472356 -0.073210835 -0.020797009 0.02983621 0.01010278
0.18181683 -0.039616156 0.04398758 -0.06898506 -0.028123194 0.12996276 0.0031778584 0.0343641
0.21418211 0.02806791 0.20057736 -0.053043846 0.0939198 0.088097475 0.04450987 0.15702716
0.009870297 0.012059145 -0.041477915 0.04530095 -0.0023878438 -0.041945085 0.09605198 0.010801108
0.055037204 0.016058506 -0.020539843 -0.082405336 0.0047590206 -0.046251804 0.08599052 -0.11700681
0.16226462 0.04623272 -0.062628224 0.04531725 -0.07560246 -0.03436917 0.230421 0.16930845
-0.20047045 -0.050697587 0.08395977 0.06266399 -0.030646354 0.07654581 0.020697996 -0.08275834
0.100530766 -0.07240216 -0.07171174 0.10119742 -0.13195202 -0.14620937 0.10052757 0.013333551
0.04534833 -0.06988899 -0.085878596 -0.111906305 0.032281645 -0.021420779 -0.07710548 0.019178879
0.07457993 0.2294464 0.06263283 0.010498268 -0.005515789 0.1064325 -0.0067280484 0.09154361
0.07704618 0.015035154 -0.10751215 0.0646638 -0.013543965 0.022068104 -0.04640219 0.07666249
-0.05231894 0.033594176 -0.077922136 -0.034359526 -0.042868406 -0.015390934 -0.08219627 0.05732402

layers.1.attn_r f4 [1, 1, 256]
00000000: 8abd 5c3d 0a3e 92be 672e 82bb 7432 e5bd
00000010: 658e f93c 351c b9bc 86ce 533e 107f 9ebd
00000020: ce04 15be 8b7b 16be 9f37 3e3e 6ce1 3e3d
00000030: 7c6d 51be 26fe f83c e577 1b3e ad0f a5bc
00000040: abc8 e9bd 6ca2 6a3d 7658 2cbd 5e59 babd
00000050: 0fb1 a8bd 9c35 84bd 4642 92bd d8b9 333e
00000060: c9e3 a1bc a57a 9cbd 0157 1f3e 5952 ed3c
00000070: 8217 a53d 7aa0 4b3d 1824 3fbd 993e c83b
00000080: eb36 50be cc05 e13d 12f4 083e 1299 1e3e
00000090: 4b72 27bd e540 8dbd 1178 71bc 1c25 1abe
000000a0: 0a75 01bc 0141 d93b e815 3bbe 16e1 5f3d
000000b0: f0df 92bd ba46 bdbd e1ab 91be 23f0 1ebd
000000c0: 6cf5 1e3e 8712 193e 0246 2b3e 78aa 513d
000000d0: d265 f0bd 3afd debc 5bf2 b3bd dd68 34ba
000000e0: 6d66 e83d b9b0 cf3d da80 14be 5402 53be
000000f0: 2fd1 eebd b451 0e3d fbad b1bd d4f6 b3be
00000100: 3366 64be b626 04be 552a 4e3e 6839 6d3d
00000110: 65c3 ee3d 89af abbd fce5 6d3c 27a2 683c
00000120: 38ff 6537 149e d9bd 045b 773e 0351 633d
00000130: e93c 1b3d bb48 163e e4df 3ebe c3d1 4f3e
00000140: 054d 50be 40aa febc 5c32 f33c c139 8a3b
00000150: dc5a fb3d 1b52 08bd 5cf1 c93d 6079 603d
00000160: e5f7 4bbd e83e 6c3c d69e 92bd d9af b1bc
00000170: 5a70 573d 4247 ab3c 3ade 2d3e 4c12 5abd
00000180: 064a afbd dc39 4b3e d890 193e 1c7e bf3c
00000190: c2ab a03e 20a8 a43d b8f3 85bd 4de0 14bd
000001a0: 539e d4bd b42b cbbd c4dc 99bd 15d3 8bbc
000001b0: 5ae5 bc3d 927f 3d3b dc3a 343d 0c55 b5bd
000001c0: 1ce1 46bd 7ea7 29bc 2b3a 213e ec39 3ebe
000001d0: 2874 32bd 2e24 873e 0449 1abd b03d f8bd
000001e0: 441e 683e 94ec 19be 7edd 51be 0c3a 31bd
000001f0: 5d84 833d bdee 6fbe e168 403c ccc2 56be
00000200: 4c3e 6abd dced 2e3d dcba aabb 6fba f2bd
00000210: 2a90 b33d 3f2d 603d b49a b33e 883f f1bc
00000220: 1907 253b de75 c03d 425f 81be b799 09be
00000230: cb1b 8ebd e5cd 133c 5091 b13c 0996 843e
00000240: 68b7 94bd 3821 1d3d 6a52 92bd 3ee4 c5bd
00000250: dc70 17be 7fc7 fc3d 1b19 3c3e adf6 42bc
00000260: 226a 263e 9a70 093e e23d c4bd b8f8 043b
00000270: 021f 90be 8e5c bfbc 2ba3 a1bd 87be 3abe
00000280: 0554 4a3e bc6f ce3d 9d9d cabd af81 0fbd
00000290: ba11 08bd 85f7 5c3e 6b10 003e 59c0 3ebd
000002a0: 462e 81bd c256 f7bc c95a 07be 5871 2a3e
000002b0: bd59 593c 323e e4bd 5445 8b3d 3a67 0a3e
000002c0: 5812 a73b a6f0 16bd 54ae a43d f011 be3d
000002d0: e15d 613e 3359 7c3d 7b68 613c 673c 0abe
000002e0: 20c5 8bbd 0aa4 363d 7de1 213e dd13 56be
000002f0: acd9 bbbe 39ad 6dbc 136f 8bbe 5798 983d
00000300: f9d8 01bd 5cca 1a3d 538b 8f3c 66e1 ff3d
00000310: 77f8 cfbd fedd 04be e983 88bc 6530 98be
00000320: ac28 9abb 0bd5 2bbd 17e7 47bd ff0a 2cbe
00000330: a0bc b7bd 8557 503e 9bbb 71bc fa5e bf3b
00000340: bdb1 49bd 4ac3 8fbd 6feb 21be e982 3a3d
00000350: e382 78bd ed97 1bbd d0e8 633d d328 8bbd
00000360: 55e6 32bd b9d2 5e3d e5ee 28be b8b1 193d
00000370: 8986 cabe d998 5d3e 450a cf3d 603d 403e
00000380: a0b4 55be f12a 93bd 5999 2ebe c561 593d
00000390: 8c13 22bd d77e 603d a452 2d3e 699a 8bbd
000003a0: c71e 223d fb75 fe3c 020e 19be a691 edbd
000003b0: a28f 6a3e 283f d4bd a831 aebc c036 c3bd
000003c0: eb58 963e 36e7 9ebd 03ab e53d 8585 cebc
000003d0: 95a8 3a3e 6701 f1bd 3690 c73b 4bb2 90bb
000003e0: 9fbd a73d 2913 103e afa2 20bc a456 793c
000003f0: b154 ebbd a106 32be 6165 923e 9c7c 9cbc
0.053891696 -0.28562957 -0.0039728167 -0.11191264 0.030463407 -0.022596458 0.20684251 -0.07739079
-0.14552614 -0.14695565 0.18575905 0.046601698 -0.20451921 0.030394625 0.15182455 -0.020149076
-0.114152275 0.057283804 -0.04207655 -0.09099077 -0.08236896 -0.06455538 -0.07141547 0.17551363
-0.019761937 -0.0764058 0.15560533 0.02896993 0.080611244 0.04971359 -0.04666528 0.006110978
-0.2033345 0.10987434 0.13374355 0.15488079 -0.040880483 -0.06897143 -0.014738099 -0.15053219
-0.007901439 0.0066300635 -0.18270075 0.054658018 -0.07171619 -0.09242006 -0.28451446 -0.03880323
0.15523309 0.14948474 0.16725925 0.051187962 -0.11738171 -0.027220357 -0.0878646 -0.0006882081
0.11347661 0.10141129 -0.14502278 -0.20606357 -0.11660992 0.034745887 -0.08675762 -0.35149252
-0.22304611 -0.12905392 0.20133336 0.057916075 0.11658362 -0.0838309 0.014520165 0.014198816
1.3708886e-05 -0.10625854 0.24155813 0.05549718 0.037899885 0.14676182 -0.18640095 0.20294861
-0.2034188 -0.03108704 0.0296871 0.0042183106 0.122731894 -0.033281427 0.09860489 0.054803252
-0.049796958 0.014419295 -0.07159202 -0.021690296 0.05259738 0.020908002 0.16979304 -0.053240106
-0.08559041 0.1984629 0.1499666 0.023375563 0.3138104 0.0803988 -0.06540626 -0.036346722
-0.103817604 -0.09920445 -0.07512811 -0.017068425 0.09223433 0.002891515 0.044001445 -0.08854112
-0.048554525 -0.010354875 0.15744846 -0.18576783 -0.043567806 0.2639479 -0.03766729 -0.12121141
0.22667795 -0.15031654 -0.20494649 -0.04326825 0.06421731 -0.23430915 0.011743755 -0.20972747
-0.057188317 0.04270731 -0.0052102637 -0.11851966 0.087677315 0.05473065 0.35078967 -0.02944924
0.0025181232 0.093974814 -0.25267988 -0.13437544 -0.06938895 0.009021257 0.021675736 0.25895718
-0.072615445 0.038361758 -0.071446255 -0.09662674 -0.14789146 0.12342738 0.18368952 -0.011899632
0.16251424 0.1342186 -0.09582116 0.002028985 -0.28148657 -0.023359563 -0.0789245 -0.18236743
0.19758613 0.100799054 -0.098933436 -0.035035785 -0.03322003 0.21578796 0.12506263 -0.046570156
-0.06307654 -0.030192737 -0.13218226 0.166448 0.013266024 -0.11144675 0.06800333 0.1351594
0.0050986223 -0.036850594 0.08041063 0.09280765 0.22008468 0.061608505 0.01375782 -0.13499604
-0.06824708 0.044590034 0.15808673 -0.20906015 -0.36689508 -0.0145066315 -0.2723318 0.074509315
-0.031701062 0.03779064 0.01752249 0.12494163 -0.10154813 -0.12975308 -0.016664462 -0.29724422
-0.0047045555 -0.04195122 -0.04880437 -0.1680107 -0.08971524 0.20345886 -0.014754201 0.0058401795
-0.04924177 -0.0701967 -0.15812467 0.045535002 -0.0606717 -0.037986685 0.05564195 -0.06794896
-0.043676693 0.05440018 -0.16497381 0.037523 -0.39555767 0.21640338 0.10109381 0.18773413
-0.20869684 -0.07185925 -0.17050685 0.053071756 -0.039569423 0.054808464 0.16926056 -0.06816561
0.039580133 0.031062117 -0.1494675 -0.11600046 0.22906354 -0.103636086 -0.021263912 -0.09531927
0.29364714 -0.07758944 0.112142585 -0.025210151 0.18228371 -0.117678456 0.0060901893 -0.0044157854
0.08190464 0.14069809 -0.009804412 0.015218411 -0.11490763 -0.17385341 0.2859297 -0.019102387

layers.1.bias f4 [256]
00000000: 3ce8 2a3d 973a 3abd 1a29 e43c 0741 1ebd
00000010: 22ed 993d fe1b ab3c 8013 a1bc 141c 803d
00000020: 091f 10bd a124 a7bd 0d98 943d a9c5 05bc
00000030: 6b25 803d 52e7 423d b176 97bd ad13 e23d
00000040: e48c 5dbb 714c 083a c1b2 973c 68a7 dcbb
00000050: de0a 29bd 32f7 633d 0096 8fbd 6010 92bd
00000060: a4f6 113d b904 243b ef37 99bd 78a5 d83b
00000070: 72f4 0fbc 4538 78bd 97e4 e0bc 7f48 84bc
00000080: dd9a 1d3d e2d2 d9bc 1f88 b13b 04d0 b6bc
00000090: 21cf c5bc 3f78 92bd 82ca 6d3d 50cf 8fbc
000000a0: e3af c33d 1719 99bd 0748 2abb d7f8 d6bc
000000b0: 8a22 c73c fa7a 0e3e 3e47 8b3c 7eb0 c03d
000000c0: 0c27 683c 5a97 b83d 3135 01bd c897 3ebd
000000d0: 09db d4bc 1276 893d 2d10 c83b 8885 0ebd
000000e0: 3fc8 57bc b897 273c a1b1 d43b 2471 873c
000000f0: 713a 823c 917c 5abc 99db 393d c525 a13b
00000100: a0a7 aa3c aeeb f4ba 8ff1 923c d748 983d
00000110: b46a 77bd 347d 263d 1233 7bbd dbc8 31bc
00000120: f36d 3dbc ecc9 8e3d 6273 bcbd 8286 e3bb
00000130: 6061 54bc f4fb 4f3d 9477 663d 5840 8abc
00000140: 039f 673d aa70 a23d 5634 923d 86d2 3fbd
00000150: 2e14 98bd 38fd fbbc a59b 2abd cc27 88bc
00000160: 53e8 df3c 1a1f 2c3d 67c9 2f3c 5818 e1bc
00000170: 9097 8c3b 31fa 01bd 9af9 123d f4c1 f0bc
00000180: 7391 b2bd a3a6 183d a9c8 b7bc 6612 0b3d
00000190: ae83 04bc adeb d03d 0603 5fbd ff7e 623d
000001a0: 3b3b 2c3d cd36 71bd 3503 4cbd 0e03 be3d
000001b0: c743 c53c 81ac a1bc a8a1 6bbc 0281 e23d
000001c0: e787 23be 4e8c 31bd 0e89 833d 9f57 0e3c
000001d0: 3888 36bc 99d0 1b3e 709f 2e3d 2485 3dbc
000001e0: f913 5cbd eb1e 33bc 0ae6 cdbc 6335 96bd
000001f0: 8df8 7c3d 46b2 93bd c615 df3d 3023 55bc
00000200: b263 acbc 3b49 d8bc 65fc 813d 991d 1d3d
00000210: b54f c4bc 64cd 12bd 25ac b83d c3f7 aa3c
00000220: 151c fd3d a317 f9bc cb84 683d d3f8 7c3d
00000230: b9d4 b53d 85f7 5d3c 8d34 593d 00b4 c63b
00000240: 2b07 343d 9a7f c43c ccb5 77bd dac2 873c
00000250: 22a6 bfbc 4f0a 07be bd3f 42bc 390d e0bc
00000260: f87f c93d c1d4 cb3d e83b 60bc 9619 483d
00000270: 8b53 333d 3995 563c 6194 d03c 056d 463d
00000280: cc29 413c f6ec 443d 260b c7bc 49ac 69bd
00000290: 7eee 413d 03d0 48bc c247 11bb 9905 a73d
000002a0: dcb2 7ebd ad32 613d 9b80 483d 545c 03be
000002b0: ec7d 773d 8140 ee3c 7c5b 33ba 4a56 c2bc
000002c0: 81e4 4cbd 6c5e 773d b77d f43c 75a5 703d
000002d0: 0081 963b 8497 843a 1977 7dbd 3f63 9f3c
000002e0: 4bfd 38bd 3f75 afbd 5296 a7bd 2430 953d
000002f0: b586 223d ef91 573c ecbb 6bbd 2034 b83c
00000300: 8d22 cf3d 6c79 733c 09ae babc 5da6 ee3c
00000310: 364a 563d 70f2 8abd faf3 5a3d ba1c 4a3d
00000320: eedc 803d c5ea 8d3d 6ce0 b7bc bc98 ab3c
00000330: c52f 463d 275b b33b 6310 923b 5dfd 783d
00000340: 5576 d3bd 0279 5abd 5b0a 52bd a457 b93b
00000350: 3595 4ebd 39f7 d7bc 5d89 41bd 8d8b cb3c
00000360: 71bc ba3d 6694 c1bb 13fc 5ebc ccb4 863d
00000370: 3b7f 53bd b5ae b13b 8e14 963b fbaa 313d
00000380: 4b8d 0bbc 5d2a 82bd f045 d33c 18cf 9ebd
00000390: e65d 333d 3454 743d cd8f 713c d662 c5bd
000003a0: cc4c 103d 872f a83c b961 453d 7c7a 8c3b
000003b0: df63 89bc 71f4 c4bc fa4f f7bd 0932 7bbb
000003c0: b200 af3d dfa9 983c 7c75 e3bd c069 6e3d
000003d0: 8021 04bd 923c 60bd 2192 a03c a457 12bd
000003e0: 6fc6 4c3d 1566 07bb 4caf 263d b9f5 2b3d
000003f0: 1763 9d3c bfb5 08bc 4ce7 103d 492f ddbb
0.041725382 -0.045466032 0.02785163 -0.038636234 0.075159326 0.020887371 -0.019662619 0.062553555
-0.035185847 -0.08161283 0.07255564 -0.008164802 0.06257137 0.047583885 -0.073956855 0.11038909
-0.0033805901 0.0005199379 0.018517854 -0.0067338236 -0.04127013 0.055655666 -0.07011032 -0.071320295
0.035635605 0.002502723 -0.074813716 0.0066115223 -0.008786308 -0.060600538 -0.02745275 -0.01614785
0.038477767 -0.026589815 0.005417838 -0.022315986 -0.024146618 -0.07151841 0.058054455 -0.017554909
0.09555032 -0.07475489 -0.0025982873 -0.026241703 0.024308462 0.139141 0.017001744 0.09408663
0.014169466 0.09013243 -0.031544868 -0.04653147 -0.02598335 0.06711973 0.006105444 -0.034795314
-0.013170301 0.010229044 0.0064909016 0.016533442 0.015897008 -0.013335363 0.04537544 0.0049178326
0.020831883 -0.0018685961 0.01793745 0.07435768 -0.060404494 0.040646747 -0.061328 -0.01085111
-0.0115618585 0.06972107 -0.09201695 -0.006943525 -0.012962669 0.05077739 0.056266382 -0.016876385
0.05654813 0.07931645 0.071388885 -0.04683163 -0.07425724 -0.030760393 -0.04165234 -0.01662054
0.02733246 0.04202185 0.01072917 -0.027477428 0.0042905286 -0.03173274 0.03588257 -0.029389359
-0.087191485 0.037268292 -0.02243455 0.033953093 -0.0080880355 0.102012016 -0.054446243 0.055296894
0.042048674 -0.058890153 -0.049807746 0.092779264 0.02408017 -0.019735577 -0.014381804 0.110597625
-0.15969811 -0.043346696 0.064226255 0.008687883 -0.0111408755 0.15216292 0.04263252 -0.011567388
-0.053729985 -0.010932664 -0.025134105 -0.073344015 0.061760474 -0.07211737 0.10892825 -0.013008878
-0.021043632 -0.026402107 0.063469686 0.038358305 -0.023963789 -0.035840407 0.09017209 0.020870095
0.12358872 -0.030406779 0.056767266 0.061760735 0.08878464 0.013547783 0.053028632 0.006063938
0.04395215 0.023986626 -0.06047611 0.016572405 -0.023394648 -0.13187526 -0.011856017 -0.027350055
0.09838861 0.09952689 -0.013686158 0.048852526 0.043780845 0.013097101 0.025461378 0.048443813
0.01178975 0.048077546 -0.024297308 -0.05704907 0.047346584 -0.012256625 -0.0022168015 0.081553645
-0.062182292 0.05497997 0.048950773 -0.12828189 0.060422823 0.029083492 -0.00068419403 -0.023722786
-0.050022606 0.060392782 0.029845102 0.058751542 0.0045930147 0.0010115956 -0.06188116 0.019456504
-0.045163434 -0.08567285 -0.08182968 0.07284573 0.039679248 0.013157352 -0.057552263 0.022485793
0.10114012 0.014860492 -0.022788065 0.029132063 0.052316867 -0.067845225 0.05345533 0.049343802
0.06292139 0.06929544 -0.02244588 0.020946853 0.0483854 0.0054735127 0.00445752 0.0607885
-0.103253044 -0.05333806 -0.051279407 0.0056561995 -0.050435264 -0.026363002 -0.04725014 0.024846816
0.091179736 -0.005907583 -0.013609904 0.06577453 -0.05163501 0.005422438 0.004580087 0.04337595
-0.008517574 -0.063557364 0.025790185 -0.07754344 0.04379072 0.059650615 0.014743757 -0.09637992
0.03522949 0.020530475 0.0481889 0.004287062 -0.016771255 -0.02404234 -0.12075801 -0.0038329384
0.085450545 0.018635688 -0.11106393 0.05820632 -0.03225851 -0.054745264 0.01960093 -0.035728112
0.04999393 -0.002066021 0.04069452 0.041982386 0.019212289 -0.008344113 0.035376832 -0.0067500216
